digit_interface/models/2023-10-20-09-51_042.ckpt (torch, 13199 bytes, 8 tensors)

weight f4 [32, 5]
-0.34751436 0.4342061 -0.24682742 -0.14644949 0.3065942 0.17433834 -0.22999848 0.06810269
-0.3992926 0.22511254 0.08826004 -0.12490344 0.24199095 0.26178855 -0.47133514 -0.07543858
0.13314728 0.008316248 0.04682437 -0.15053543 -0.21087688 -0.43604532 -0.06501174 -0.38692334
0.11003787 0.4113561 -0.35250613 -0.07199425 0.14347371 -0.3875867 0.34538627 -0.029020708
-0.013517868 0.012566932 -0.53253454 0.45562947 0.23509708 -0.27063796 0.3035784 0.29117256
-0.3374457 0.33478114 -0.0066048666 -0.40633038 -0.16216075 -0.33600992 -0.37870428 0.004832544
0.074885376 0.50278157 0.41327694 0.41953456 0.021842707 -0.34839565 0.18545018 -0.34888783
0.16320492 -0.15204112 0.20533372 -0.34231693 0.21295848 -0.12398501 -0.27014664 0.20649281
0.12202726 0.12245985 0.11193005 0.23608956 -0.38107845 -0.5937342 -0.32724583 -0.13597053
0.18249428 -0.37220445 -0.17562908 -0.01111104 0.34822667 -0.46320656 0.05011336 -0.2129668
-0.2150328 -0.41313484 0.39964402 0.06627848 0.07307348 0.33395177 -0.23345783 0.113005206
-0.2064758 0.12871887 0.36490604 -0.27423736 0.18880062 0.22558309 0.49205717 0.32556885
-0.10816654 0.17136456 -0.0017149021 0.35904574 0.29635212 -0.2075891 -0.26297188 0.16314724
-0.17150323 -0.28662798 0.13002844 -0.05737585 -0.001160253 0.23695439 0.1246128 0.058756348
0.16066511 -0.44668403 0.15156168 0.21993108 0.29971048 -0.22857797 -0.5086949 0.2912439
-0.42819113 -0.06363466 -0.07956157 -0.04773723 -0.2502861 -0.102869794 -0.074813016 -0.41662407
-0.40664047 -0.299153 0.139365 -0.085371226 0.48951444 0.13057108 -0.059048854 0.43079904
0.32241127 0.28046384 -0.28231457 0.058681585 -0.1244308 -0.047136337 -0.3611529 0.18017192
-0.19270068 0.40301132 -0.42395073 0.14670686 -0.29522938 0.06245972 -0.28585863 0.09135265
0.27311066 -0.14485265 0.31946135 0.345537 0.11182416 0.31485128 -0.31225583 -0.19628198
00000000: 67ed b1be 4350 de3e 54c0 7cbe dbf6 15be
00000010: eaf9 9c3e c085 323e b984 6bbe 6c79 8b3d
00000020: 1470 ccbe e783 663e aec1 b43d 60cd ffbd
00000030: 7acc 773e 2609 863e d752 f1be 8b7f 9abd
00000040: c357 083e df40 083c e9ca 3f3d f625 1abe
00000050: 1cf0 57be 5541 dfbe e024 85bd d11a c6be
00000060: 895b e13d 449d d23e af7b b4be b971 93bd
00000070: c6ea 123e c471 c6be 78d6 b03e d6bc edbc
00000080: 0c7a 5dbc 88e5 4d3c 2f54 08bf 4448 e93e
00000090: 4abd 703e 0f91 8abe a16e 9b3e 9214 953e
000000a0: afc5 acbe 6f68 ab3e a36d d8bb 890a d0be
000000b0: 780d 26be 7e09 acbe 87e5 c1be 515a 9e3b
000000c0: 815d 993d 4bb6 003f 0999 d33e 3ccd d63e
000000d0: 7aef b23c ea60 b2be a7e6 3d3e 6da1 b2be
000000e0: 311f 273e abb0 1bbe 0143 523e 2a44 afbe
000000f0: ca11 5a3e daeb fdbd a950 8abe da72 533e
00000100: 6ee9 f93d 3bcc fa3d 953b e53d 76c1 713e
00000110: b71c c3be f7fe 17bf c48c a7be dc3b 0bbe
00000120: c8df 3a3e 9591 bebe 1cd8 33be 140b 36bc
00000130: c44a b23e 6929 edbe ab43 4d3d f813 5abe
00000140: 8f31 5cbe 6986 d3be 249e cc3e 03bd 873d
00000150: 8ca7 953d bafb aa3e 920f 6fbe 466f e73d
00000160: 646e 53be e1ce 033e f7d4 ba3e d768 8cbe
00000170: f354 413e 41ff 663e ebee fb3e f6b0 a63e
00000180: 6b86 ddbd 317a 2f3e 91c6 e0ba d8d4 b73e
00000190: 77bb 973e 3d92 54be 40a4 86be 1210 273e
000001a0: 8b9e 2fbe e7c0 92be 2d26 053e f002 6bbd
000001b0: a113 98ba 2ca4 723e ff34 ff3d 7faa 703d
000001c0: 6585 243e c5b3 e4be fc32 1b3e 9d35 613e
000001d0: a773 993e 5810 6abe d439 02bf ec1d 953e
000001e0: de3b dbbe e352 82bd 2df1 a2bd 1d88 43bd
000001f0: 8025 80be 66ad d2bd 9137 99bd c04f d5be
00000200: 2e33 d0be 952a 99be b3b5 0e3e 1cd7 aebd
00000210: a3a1 fa3e 6db4 053e 36dd 71bd b191 dc3e
00000220: 1713 a53e f598 8f3e 898b 90be 1a5c 703d
00000230: 93d5 febd 0812 41bd 08e9 b8be fd7e 383e
00000240: 5453 45be 8057 ce3e 1210 d9be 533a 163e
00000250: 4e28 97be c3d5 7f3d 105c 92be 1917 bb3d
00000260: 29d5 8b3e 4154 14be 7090 a33e 3aea b03e
00000270: 1104 e53d 3034 a13e ffdf 9fbe 25fe 48be

bias f4 [32]
-0.43787807 -0.2938815 -0.1403561 -0.344677 0.32262874 -0.38209045 0.30422148 -0.3056886
0.19492038 0.05089838 -0.2358695 -0.20568255 0.33246398 0.17092992 -0.1810547 -0.049965262
0.28529596 0.007314223 -0.40846843 0.18756914 0.031845666 0.41861114 0.01899893 -0.19090344
-0.30127707 0.06135248 0.27038234 0.28261825 0.29116464 0.32849765 0.06508691 0.03171083
00000000: 8e31 e0be a377 96be 82b9 0fbe 8179 b0be
00000010: 982f a53e 5ca1 c3be ebc2 9b3e 3783 9cbe
00000020: 3599 473e d27a 503d c687 71be 729e 52be
00000030: b838 aa3e 4108 2f3e 6766 39be 60a8 4cbd
00000040: 5012 923e 26ac ef3b c622 d1be 2012 403e
00000050: 9a70 023d 3354 d63e a5a3 9b3c 317c 43be
00000060: fd40 9abe bd4c 7b3d 8e6f 8a3e 57b3 903e
00000070: 8813 953e d830 a83e 494c 853d 37e3 013d

weight f4 [32, 32]
0.018698638 0.04036941 0.20938684 -0.035570633 -0.19036043 0.033788454 0.29691613 -0.07728372
0.089023866 -0.17833266 -0.07603756 -0.053453665 -0.14257579 -0.09381806 -0.0054815556 -0.06255274
0.035463892 -0.49348494 -0.13841566 -0.021688664 0.016516384 -0.011766718 -0.34694883 -0.3022049
0.019317986 -0.077296436 0.07736447 -0.015219024 0.086980775 -0.090905614 -0.1327713 -0.10389229
-0.1182662 -0.020072542 -0.2745305 -0.0036767647 -0.71204746 0.13615112 0.01700467 0.1207472
0.18930905 0.50050515 -0.03317562 -0.08402204 0.03659997 -0.20799267 -0.050326727 0.27724418
-0.03324896 0.34507537 0.41063395 0.020159341 0.07593924 0.11925796 -0.12178831 0.4119959
-0.06240039 -0.115975715 0.009964125 -0.016597042 0.24484856 0.06256282 0.22215712 -0.12588339
-0.06499527 0.054564722 -0.019637166 -0.15601048 0.4094824 0.11505307 0.14762162 -0.022576094
-0.15988901 0.003553815 -0.14004251 -0.03628582 -0.07534594 0.07930042 -0.17215995 0.087687664
0.10071497 -0.040886167 -0.06334064 0.16442783 0.11670921 0.1130825 0.2906177 0.08133281
-0.14771396 -0.12182125 0.012825423 0.06708242 -0.0092841955 0.06661236 0.142687 0.21216418
0.16965201 -0.09360777 -0.13318488 0.054969393 0.38249704 0.0116231525 -0.16992408 0.066793226
-0.023917396 -0.052906837 0.078121185 0.15354677 0.006533939 -0.13680616 -0.013822775 -0.04545089
-0.057526324 -0.06684298 -0.10008351 -0.057134744 -0.12516242 0.029016322 -0.14731875 -0.37119815
-0.012040722 -0.09752106 0.11477942 -0.16593978 -0.065900974 -0.014338549 -0.028568506 0.49350858
-0.010408501 -0.14685906 0.232333 -0.021730283 0.22001813 -0.09968511 -0.13130358 -0.092901625
-0.11599205 -0.11986263 -0.055377115 0.09706625 0.15489514 0.0097696865 -0.17389584 0.18894112
0.09454276 -0.080296464 -0.29130366 -0.0013354594 0.15788391 0.1305576 -0.18748498 -0.092178546
0.12298878 -0.16362444 -0.12899104 0.07248996 -0.061619714 -0.09372123 0.0083019845 -0.06839309
-0.07653984 0.016035654 -0.2773249 -0.0043923547 -0.5176237 -0.03825115 -0.0023196642 -0.07421821
-0.091822386 0.6517591 0.057255372 0.010897721 0.21185084 -0.21918088 0.122597955 -0.17399159
-0.001746 -0.10512872 0.17211269 -0.05040224 -0.109746695 0.026158327 0.0748113 0.42336908
0.13446456 0.16118196 0.02913344 -0.03131339 -0.21121515 0.12672895 -0.17240609 0.06010958
0.07830035 -0.16560487 -0.024001092 0.113049395 0.12620005 0.14193322 -0.16553178 -0.13435805
0.11797334 -0.02531799 0.08188439 0.1211705 0.009695594 0.1460785 0.05769716 0.02476351
-0.13627695 0.1306179 -0.167541 0.0019856577 -0.12892947 0.13382381 0.093636066 -0.0052629765
0.0049447734 -0.03885718 -0.087433375 -0.1277081 -0.11261365 0.014636601 0.08312699 0.01351796
-0.030905735 0.040250767 0.03969237 -0.055539325 0.3381736 0.0064154877 0.12889946 0.047644928
0.24587184 -0.22481275 0.16777928 0.11172847 -0.1228356 -0.042392895 -0.0034456523 -0.09990509
0.01731342 0.05974185 -0.040123783 0.18494938 -0.014505778 -0.068149514 -0.091998525 -0.12832125
-0.09653495 -0.06907921 -0.08088608 -0.038939465 -0.06612354 -0.092464544 -0.04225325 0.04646495
00000000: e32d 993c 655a 253d 8169 563e 83b2 11bd
00000010: d8ed 42be c365 0a3d 6405 983e ed46 9ebd
00000020: 2552 b63d d69c 36be 95b9 9bbd 3bf2 5abd
00000030: 63ff 11be af23 c0bd 9f9e b3bb a71b 80bd
00000040: 9642 113d 0faa fcbe d6bc 0dbe 6dac b1bc
00000050: 5e4d 873c 31c9 40bc 47a3 b1be 9aba 9abe
00000060: c140 9e3c 984d 9ebd 4371 9e3d 3759 79bc
00000070: fa22 b23d b92c babd 33f5 07be 7bc5 d4bd
00000080: 8d35 f2bd 2c6f a4bc 438f 8cbe e0f5 70bb
00000090: be48 36bf 336b 0b3e 614d 8b3c 4f4a f73d
000000a0: 3bda 413e 1b21 003f 29e3 07bd bf13 acbd
000000b0: dae9 153d 08fc 54be 6623 4ebd f3f2 8d3e
000000c0: 1030 08bd b8ad b03e 9d3e d23e 3425 a53c
000000d0: 0886 9b3d 843d f43d 266c f9bd 20f1 d23e
000000e0: 8d97 7fbd ad84 edbd 9240 233c 85f6 87bc
000000f0: 95b9 7a3e f020 803d 287d 633e 93e7 00be
00000100: 3d1c 85bd 427f 5f3d 1fde a0bc 36c1 1fbe
00000110: ada7 d13e f2a0 eb3d 1f2a 173e 80f1 b8bc
00000120: f2b9 23be 1fe7 683b 4e67 0fbe 71a0 14bd
00000130: f94e 9abd 4268 a23d b34a 30be 9795 b33d
00000140: a643 ce3d 4178 27bd bdb8 81bd c55f 283e
00000150: 3d05 ef3d cc97 e73d d8cb 943e d191 a63d
00000160: 5442 17be 6b7d f9bd b921 523c 8262 893d
00000170: bd1c 18bc 106c 883d 8a1c 123e 9141 593e
00000180: 42b9 2d3e 6eb5 bfbd 9e61 08be 9627 613d
00000190: a7d6 c33e 096f 3e3c 9400 2ebe e3ca 883d
000001a0: 6aee c3bc d7b4 58bd 00fe 9f3d 5d3b 1d3e
000001b0: a71a d63b ea16 0cbe ec78 62bc b62a 3abd
000001c0: b9a0 6bbd f9e4 88bd 95f8 ccbd 1f06 6abd
000001d0: 942a 00be a3b3 ed3c bada 16be af0d bebe
000001e0: 7346 45bc 1fb9 c7bd 7911 eb3d 1eec 29be
000001f0: 17f7 86bd 3cec 6abc 8008 eabc 28ad fc3e
00000200: 6b88 2abc 3962 16be b4e8 6d3e b503 b2bc
00000210: 6f4c 613e b527 ccbd 7274 06be 3543 bebd
00000220: 3d8d edbd 8a7a f5bd 1dd3 62bd acca c63d
00000230: d59c 1e3e 0911 203c c011 32be c879 413e
00000240: a29f c13d 7972 a4bd c125 95be 950a afba
00000250: 52ac 213e e4b0 053e 10fc 3fbe 1bc8 bcbd
00000260: 8be1 fb3d 2a8d 27be 3a16 04be 9e75 943d
00000270: f464 7cbd ebf0 bfbd 0c05 083c ad11 8cbd
00000280: ebc0 9cbd 345d 833c 87fd 8dbe beed 8fbb
00000290: fd82 04bf 3dad 1cbd 8205 18bb b8ff 97bd
000002a0: 600d bcbd afd9 263f 9c84 6a3d 5b8c 323c
000002b0: 6def 583e f470 60be a314 fb3d da2a 32be
000002c0: 0ada e4ba ba4d d7bd 4f3e 303e 9472 4ebd
000002d0: e0c2 e0bd fd49 d63c ab36 993d d5c3 d83e
000002e0: 14b1 093e e20c 253e 41a9 ee3c 7842 00bd
000002f0: c948 58be 3cc5 013e 398b 30be 7735 763d
00000300: ef5b a03d 5394 29be f09d c4bc 7186 e73d
00000310: 963a 013e f156 113e 2a81 29be 2895 09be
00000320: 029c f13d ac67 cfbc 01b3 a73d 3d28 f83d
00000330: 45da 1e3c 9a95 153e db53 6c3d d8dc ca3c
00000340: 2f8c 0bbe b3c0 053e de8f 2bbe cf21 023b
00000350: 1606 04be 1c09 093e 44c4 bf3d 0c75 acbb
00000360: c407 a23b b528 1fbd 4510 b3bd eac5 02be
00000370: fca1 e6bd 5bce 6f3c 7c3e aa3d 6f7a 5d3c
00000380: 062e fdbc fddd 243d 7794 223d 347d 63bd
00000390: 1725 ad3e 0339 d23b 38fe 033e 5427 433d
000003a0: d4c5 7b3e 5035 66be 55ce 2b3e e5d1 e43d
000003b0: 3b91 fbbd 2ca4 2dbd 74d0 61bb 0a9b ccbd
000003c0: e0d4 8d3c dfb3 743d d658 24bd 5f63 3d3e
000003d0: a5a9 6dbc f991 8bbd b969 bcbd a566 03be
000003e0: 1eb4 c5bd 6779 8dbd 9aa7 a5bd fd7e 1fbd
000003f0: c76b 87bd 0d5e bdbd be11 2dbd 0852 3e3d

bias f4 [32]
0.2297302 -0.09642187 -0.122361615 0.0831272 0.19045107 -0.033422958 -0.18133472 0.08503569
-0.0025538725 -0.005847447 0.09381636 -0.07561902 0.12044578 -0.028062657 0.058711853 0.30113432
-0.081289835 0.18392566 0.05864983 0.04158508 0.11618492 0.1631841 -0.119138785 0.09691058
0.035625376 0.17128897 -0.003138969 0.08853872 0.2097631 -0.08876137 -0.1134247 -0.056803312
00000000: 653e 6b3e d478 c5bd ba98 fabd 983e aa3d
00000010: 9b05 433e 83e6 08bd cfaf 39be 3127 ae3d
00000020: df5e 27bb f19b bfbb cb22 c03d 25de 9abd
00000030: 47ac f63d a8e3 e5bc d77b 703d 472e 9a3e
00000040: 497b a6bd 0257 3c3e ce3a 703d 1e55 2a3d
00000050: 5cf2 ed3d bc19 273e 09ff f3bd 0e79 c63d
00000060: eaeb 113d 6066 2f3e 29b7 4dbb ca53 b53d
00000070: 23cc 563e 85c8 b5bd 364b e8bd 97aa 68bd

weight f4 [32, 32]
0.36826205 0.2444323 -0.15478437 -0.3560744 -0.010060269 0.15113363 0.003806707 -0.088384956
-0.14354411 -0.053388625 0.396981 -0.05519146 0.12012587 0.014178828 -0.049026683 0.43171144
-0.03313955 -0.0011389697 0.013078162 -0.09906525 -0.1378615 -0.321473 0.16112028 -0.093348734
-0.07281716 -0.020786615 -0.15702309 -0.12270837 -0.453059 0.052896023 0.16138981 0.06882418
-0.3366208 -0.29976445 -0.01207352 0.2749392 0.07203358 -0.258172 0.030640591 0.11595803
-0.09084277 0.16487192 -0.0014165703 -0.032241408 -0.10050159 -0.15843184 -0.1322397 -0.13963813
0.15143073 0.036988508 0.01280487 -0.035680242 0.031068603 0.071454935 0.076961875 0.06324786
0.05366067 0.09344978 0.057593647 0.030090788 0.086370416 0.17764743 0.08113535 -0.0042835795
-0.1554887 -0.06023716 -0.11028812 -0.23799899 -0.04433622 0.049779907 0.06865534 0.10586335
-0.016169215 -0.09745855 0.092984736 0.070203185 -0.21009922 0.15633145 0.12636137 -0.15672517
-0.20527078 -0.154581 0.0054865363 0.09493735 0.12746751 -0.27470344 0.016540231 -0.09710377
-0.14994413 -0.11600958 -0.007478901 0.052653056 -0.0466083 -0.09638859 0.12758778 0.08091447
-0.2475365 -0.329879 -0.14995089 -0.12420289 -0.06929428 -0.35533017 0.10549374 -0.011907318
-0.13229944 -0.008896565 0.037788052 -0.19952893 0.07925105 -0.09518676 -0.24942459 -0.13260302
0.006011892 -0.19503883 0.03451893 -0.15258768 0.05844602 0.040697142 0.12888737 0.008040134
0.05001828 0.1508697 0.02453169 -0.15515946 -0.4294531 0.0557609 0.03699298 -0.015891615
-0.08563593 0.2850204 -0.064607866 -0.16735676 -8.796222e-05 0.48240802 -0.000195342 0.066025086
0.1009932 -0.060186394 -0.15149696 -0.033556707 0.028115842 0.31080103 0.2656815 0.08775139
0.116281204 0.0026588764 -0.12476054 -0.09821004 0.01260531 -0.4495846 0.14432085 -0.028347671
-0.04078629 0.13294338 -0.05713935 0.18593499 0.25293398 -0.10502474 0.12082688 0.083244
0.36097834 -0.15478002 0.004981766 0.29391387 0.07682348 -0.29281357 -0.0892118 0.23956949
0.0012105663 0.045960642 -0.0052794795 0.06181209 0.15047199 -0.099657156 -0.18953699 0.17125632
-0.044447124 -0.0073888083 0.0713772 -0.13048312 0.12141428 0.4636468 -0.1499771 0.087833926
-0.1729065 -0.1853571 0.12088851 -0.10247475 -0.23675647 0.17565341 0.032192267 0.03536727
-0.29440236 0.21208602 0.12557162 -0.039769754 -0.042416703 0.43409136 -0.05229447 0.047974568
-0.10687056 -0.05957067 -0.050586976 -0.025726588 -0.15864591 0.32590398 0.29615918 -0.32192737
-0.0119482 0.131197 0.043007705 -0.07945758 0.16131537 -0.31128967 0.16814183 0.12068648
-0.02717998 0.10360043 0.11992463 -0.10294425 0.2135162 -0.08019423 -0.17080903 -0.026856598
0.07391936 -0.069848284 -0.07085481 0.34925482 0.14328548 0.16189595 0.12543325 0.10772625
0.12286429 0.0019768039 0.037364513 0.036621206 0.059966426 0.060269143 0.040773787 -0.11316686
0.20488816 0.0033841627 0.19063064 0.05351346 0.1405494 -0.029593978 0.09937009 -0.13915846
-0.033444084 0.09091931 0.19765997 0.17640975 0.27312988 -0.06420843 0.14405799 0.020877514
00000000: d88c bc3e 764c 7a3e cb7f 1ebe 624f b6be
00000010: d4d3 24bc c6c2 1a3e f279 793b 2c03 b5bd
00000020: 3afd 12be 08ae 5abd 1841 cb3e 7110 62bd
00000030: 8d04 f63d 514e 683c 34d0 48bd 4809 dd3e
00000040: 56bd 07bd 7b49 95ba ca45 563c b9e2 cabd
00000050: 912b 0dbe 1c98 a4be b7fc 243e 9f2d bfbd
00000060: 2a21 95bd b148 aabc a9ca 20be 874e fbbd
00000070: 59f7 e7be 80a9 583d 5f43 253e b1f3 8c3d
00000080: 9059 acbe ba7a 99be 03d0 45bc d5c4 8c3e
00000090: 5786 933d 1f2f 84be fa01 fb3c 677b ed3d
000000a0: c60b babd 2fd4 283e 36ac b9ba 910f 04bd
000000b0: c7d3 cdbd f53b 22be d869 07be 4cfd 0ebe
000000c0: a810 1b3e 4381 173d 84cb 513c 7225 12bd
000000d0: 9583 fe3c f756 923d 309e 9d3d 1888 813d
000000e0: 4acb 5b3d 9962 bf3d 51e7 6b3d f580 f63c
000000f0: f9e2 b03d 35e9 353e 4a2a a63d 455d 8cbb
00000100: 6e38 1fbe 3ebb 76bd bdde e1bd 02b6 73be
00000110: e599 35bd 04e6 4b3d 2c9b 8c3d e2ce d83d
00000120: 4d75 84bc 5998 c7bd c86e be3d b0c6 8f3d
00000130: 4024 57be 5a15 203e e064 013e 907c 20be
00000140: 8132 52be 7b4a 1ebe 67c8 b33b 836e c23d
00000150: d886 023e eea5 8cbe 617f 873c 57de c6bd
00000160: f48a 19be 6e96 edbd 9211 f5bb bbaa 573d
00000170: 58e8 3ebd 6267 c5bd 5fa6 023e 7cb6 a53d
00000180: 357a 7dbe e6e5 a8be ba8c 19be 165e febd
00000190: 29ea 8dbd d6ed b5be 1a0d d83d e916 43bc
000001a0: 8179 07be e6c2 11bc a5c7 1a3d 5051 4cbe
000001b0: 604e a23d 47f1 c2bd 2969 7fbe 16c9 07be
000001c0: 68ff c43b 42b8 47be b963 0d3d f23f 1cbe
000001d0: 1865 6f3d 0cb2 263d 0dfb 033e c4ba 033c
000001e0: f8df 4c3d 967d 1a3e aff6 c83c 1fe2 1ebe
000001f0: 47e1 dbbe 8b65 643d f385 173d 222f 82bc
00000200: e461 afbd 32ee 913e 2151 84bd 925f 2bbe
00000210: 5b78 b8b8 2ffe f63e b8d4 4cb9 2938 873d
00000220: 86d5 ce3d 0286 76bd 0522 1bbe c272 09bd
00000230: 3253 e63c 5021 9f3e 6807 883e 00b7 b33d
00000240: d724 ee3d 8b40 2e3b 7482 ffbd 5822 c9bd
00000250: 8186 4e3c f42f e6be d8c8 133e 6039 e8bc
00000260: 860f 27bd 4f22 083e f30a 6abd be65 3e3e
00000270: 9080 813e 3617 d7bd 1574 f73d d57b aa3d
00000280: 27d2 b83e a77e 1ebe 153e a33b e17b 963e
00000290: a155 9d3d a9eb 95be adb4 b6bd b451 753e
000002a0: ddab 9e3a 3a41 3c3d 7cff acbb ad2e 7d3d
000002b0: 5415 1a3e 0d19 ccbd fc15 42be d15d 2f3e
000002c0: 300e 36bd d11d f2bb 362e 923d 5e9d 05be
000002d0: 0da8 f83d 1d63 ed3e 9993 19be 46e2 b33d
000002e0: 670e 31be 40ce 3dbe 6594 f73d 48de d1bd
000002f0: 4a70 72be 7dde 333e 0adc 033d 45dd 103d
00000300: e8bb 96be 142d 593e d995 003e 9ce5 22bd
00000310: 23bd 2dbd 3941 de3e ba32 56bd fb80 443d
00000320: f4de dabd 6000 74bd 4a34 4fbd 91c0 d2bc
00000330: 1374 22be e3dc a63e 2da2 973e aad3 a4be
00000340: 62c2 43bc 8258 063e d928 303d a8ba a2bd
00000350: db2f 253e 5c61 9fbe 5f2d 2c3e 792a f73d
00000360: 8da8 debc 762c d43d 0b9b f53d 6fd4 d2bd
00000370: fea3 5a3e df3c a4bd 90e8 2ebe 5e02 dcbc
00000380: 0963 973d 9e0c 8fbd 541c 91bd 87d1 b23e
00000390: 6eb9 123e 0dc8 253e 9371 003e 959f dc3d
000003a0: 46a0 fb3d 448d 013b 880b 193d 1e00 163d
000003b0: 5b9f 753d c7dc 763d 6a02 273d 07c4 e7bd
000003c0: 34ce 513e d4c8 5d3b ae34 433e ee30 5b3d
000003d0: 2fec 0f3e 126f f2bc 8c82 cb3d 8e7f 0ebe
000003e0: aafc 08bd e733 ba3d 6067 4a3e c2a4 343e
000003f0: aed7 8b3e b67f 83bd f083 133e 5207 ab3c

bias f4 [32]
0.03103308 0.18128806 -0.03172478 -0.18124618 -0.17207025 0.2121715 -0.11697059 0.08960958
-0.029930472 -0.045202293 0.0423029 0.26693535 0.08319197 -0.29840675 -0.25056857 -0.14098626
0.048785727 0.22976641 -0.10279593 -0.094297364 0.15810068 0.15914278 0.14828916 0.10306428
0.13598679 -0.012563896 -0.01566722 -0.135456 -0.03680967 -0.20011835 0.25597686 0.029957967
00000000: 1639 fe3c 94a3 393e d8f1 01bd 9998 39be
00000010: 2f33 30be 7c43 593e 478e efbd 3a85 b73d
00000020: c030 f5bc 0a26 39bd ce45 2d3d c0ab 883e
00000030: 8d60 aa3d c5c8 98be 864a 80be b45e 10be
00000040: 8bd3 473d e347 6b3e ac86 d2bd fa1e c1bd
00000050: 25e5 213e 53f6 223e 1dd9 173e 5d13 d33d
00000060: 1f40 0b3e cdd8 4dbc 8b58 80bc fab4 0abe
00000070: bdc5 16bd d3eb 4cbe 660f 833e 696a f53c

weight f4 [3, 32]
-0.18100594 0.105496496 -0.007087425 -0.056507483 0.044884905 0.009716981 0.09956646 0.11549286
-0.09493618 0.047449313 0.08401066 0.019167764 0.12456943 -0.037841536 -0.019489517 -0.03516064
0.009516168 -0.05699601 0.02782673 -0.12937574 0.15411362 0.1499837 0.045494787 -0.004134083
-0.070334636 -0.10961635 0.11998064 -0.1469346 0.030348096 -0.0836195 0.20814216 0.014058415
-0.09627049 0.12878203 -0.12203458 -0.032062184 -0.22298048 0.15095879 -0.17236815 0.06518682
-0.006693981 0.08205524 0.020271692 0.01764485 0.17873909 -0.016524902 -0.08529394 -0.0776216
0.049540456 0.19707024 -0.047456596 -0.17769413 0.046546746 0.21652552 0.017603552 0.16995655
-0.06747681 -0.01977924 -0.035589848 -0.1358068 0.05984109 0.025090283 -0.00917129 0.093761615
0.040166996 0.17560399 -0.1606921 -0.1556889 -0.001302411 0.07396031 -0.014002138 0.1588665
-0.12396564 0.10203921 -0.09203737 0.2216538 0.047755357 -0.14965399 -0.064881995 -0.20041649
0.18232118 0.16254327 -0.19840933 -0.10926247 0.14312539 -0.0837409 0.16837956 0.114547566
0.041822925 -0.09770347 0.06329885 -0.07185068 0.12697756 -0.17916496 0.114133336 0.16960183
00000000: 9f59 39be 8c0e d83d a13d e8bb 6474 67bd
00000010: 3cd9 373d f933 1f3c 80e9 cb3d 8587 ec3d
00000020: e66d c2bd 365a 423d c80d ac3d b705 9d3c
00000030: 421e ff3d baff 1abd 7ba8 9fbc 9a04 10bd
00000040: b4e9 1b3c a674 69bd e2f4 e33c 137b 04be
00000050: f6cf 1d3e 5495 193e be58 3a3d 3477 87bb
00000060: 9b0b 90bd 897e e0bd 69b8 f53d 0676 16be
00000070: 929c f83c b340 abbd 3823 553e 4455 663c
00000080: 7629 c5bd 70df 033e 44ed f9bd a353 03bd
00000090: ff54 64be f194 1a3e 4781 30be ab80 853d
000000a0: 2f59 dbbb 940c a83d d210 a63c ef8b 903c
000000b0: 6107 373e 3b5f 87bc 97ae aebd 13f8 9ebd
000000c0: efea 4a3d c8cc 493e d961 42bd 73f5 35be
000000d0: cda7 3e3d deb8 5d3e 5335 903c 1709 2e3e
000000e0: 4831 8abd 1308 a2bc a9c6 11bd f010 0bbe
000000f0: ee1b 753d 238a cd3c 2e43 16bc 1706 c03d
00000100: 2686 243d 88d1 333e 788c 24be e96c 1fbe
00000110: a9b5 aaba 8178 973d 3969 65bc e6ad 223e
00000120: b3e1 fdbd eff9 d03d 177e bcbd 37f9 623e
00000130: 1f9b 433d e53e 19be dae0 84bd fb39 4dbe
00000140: 67b2 3a3e be71 263e d12b 4bbe 00c5 dfbd
00000150: 768f 123e 5980 abbd b16b 2c3e ea97 ea3d
00000160: 844e 2b3d c218 c8bd d4a2 813d 7326 93bd
00000170: 6806 023e 0577 37be bdbe e93d 1aac 2d3e

bias f4 [3]
0.07517876 -0.0137681505 -0.07269499
00000000: 52f7 993d cf93 61bc 1ce1 94bd
